…
2023-05-13 11:51:07.521360: I tensorflow/core/common_runtime/gpu/gpu_device.cc:1402] Created TensorFlow device (/job:localhost/replica:0/task:0/device:GPU:0 with 2983 MB memory) -> physical GPU (device: 0, name: NVIDIA GeForce GTX 1050, pci bus id: 0000:01:00.0, compute capability: 6.1)
2023-05-13 11:51:07.536997: I tensorflow/compiler/xla/service/service.cc:168] XLA service 0x17b2fa94930 initialized for platform CUDA (this does not guarantee that XLA will be used). Devices:
2023-05-13 11:51:07.546438: I tensorflow/compiler/xla/service/service.cc:176]   StreamExecutor device (0): NVIDIA GeForce GTX 1050, Compute Capability 6.1
Model: "sequential"
_________________________________________________________________
Layer (type)                 Output Shape              Param #
=================================================================
conv2d (Conv2D)              (None, 32, 32, 64)        1600
_________________________________________________________________
conv2d_1 (Conv2D)            (None, 32, 32, 64)        32832
_________________________________________________________________
max_pooling2d (MaxPooling2D) (None, 8, 8, 64)          0
_________________________________________________________________
dropout (Dropout)            (None, 8, 8, 64)          0
_________________________________________________________________
conv2d_2 (Conv2D)            (None, 8, 8, 64)          24640
_________________________________________________________________
conv2d_3 (Conv2D)            (None, 8, 8, 64)          24640
_________________________________________________________________
max_pooling2d_1 (MaxPooling2 (None, 2, 2, 64)          0
_________________________________________________________________
dropout_1 (Dropout)          (None, 2, 2, 64)          0
_________________________________________________________________
flatten (Flatten)            (None, 256)               0
_________________________________________________________________
dense (Dense)                (None, 64)                16448
_________________________________________________________________
dense_1 (Dense)              (None, 10)                650
=================================================================
Total params: 100,810
Trainable params: 100,810
Non-trainable params: 0
_________________________________________________________________
Epoch 1/500
2023-05-13 11:51:09.973585: I tensorflow/stream_executor/platform/default/dso_loader.cc:48] Successfully opened dynamic library cublas64_10.dll
2023-05-13 11:51:10.196290: I tensorflow/stream_executor/platform/default/dso_loader.cc:48] Successfully opened dynamic library cudnn64_7.dll
…
